models/model.pth (torch, 378536 bytes, 8 tensors)

conv1.weight f4 [32, 1, 3, 3]
000000 80 74 36 3e 61 e5 88 be d2 b0 13 3d 55 f6 fc bc
       0.17817879 -0.26737502 0.0360573 -0.030879179
000010 d4 60 d4 be 0f 20 52 3d 9c e0 0d 3e a7 83 54 3d
       -0.41480124 0.051300105 0.13855213 0.051883366
000020 4d 69 3e 3e b0 1c 3e be 79 57 b4 3e a4 74 4b 3e
       0.18594857 -0.18565631 0.35222986 0.19868714
000030 28 e3 53 be a8 47 a0 3d 1d 6a b0 3c 9e 01 7f be
       -0.20692122 0.07826167 0.021534974 -0.2490296
000040 cf 9b ca be c9 ad 95 be 57 24 74 be fd 1a f0 bc
       -0.39571998 -0.2923415 -0.23841988 -0.029309744
000050 85 44 d6 be ce 86 9b 3e 63 fb 9a 3d 29 ed aa be
       -0.4184915 0.30376285 0.075674795 -0.33384064
000060 a7 de cc 3e 30 88 a9 bd a2 02 7d be b4 e5 80 3e
       0.4001362 -0.08277929 -0.24708036 0.2517525
000070 cd 71 23 be 76 a4 d9 bb 97 d9 8b 3b a7 75 d1 3d
       -0.1596138 -0.0066419197 0.004267882 0.102275185
000080 50 d4 fb bd b0 93 8f be 99 5b fc bd 8e 4e a5 bc
       -0.12296355 -0.28042364 -0.12322158 -0.02017906
000090 0d 5c 1b bc 86 cc 55 bd 92 c9 3f be 61 b4 83 be
       -0.009482396 -0.052197002 -0.18729237 -0.25723556
0000a0 5e b4 99 be a3 80 4f be bc 47 72 3e 43 58 14 3c
       -0.30020422 -0.20263915 0.23660177 0.009054246
0000b0 cb af 8a 3e 41 f4 a0 3e 55 39 59 be 1e 9d ab bc
       0.27087244 0.3143635 -0.21213277 -0.020948943
0000c0 35 d6 86 3d de c6 91 be cf 51 83 3d 58 c2 8b 3e
       0.065838255 -0.28472036 0.06412088 0.2729671
0000d0 8b 44 d2 bd b2 76 d1 be 9b 7c 2f be 45 a6 a8 3e
       -0.1026698 -0.4091087 -0.17137377 0.32939354
0000e0 65 91 3d bd db b1 80 be 17 f2 cb bd 35 2c f3 be
       -0.046281237 -0.25135693 -0.09958284 -0.47494665
0000f0 01 d2 af be cc 18 ad be 13 f6 6e bd 36 69 ca bd
       -0.34339908 -0.3380798 -0.058340143 -0.09883349
000100 e5 22 8d 3e d0 20 7a 3d 2e 7b ba 3d 96 43 32 bd
       0.27565685 0.06106645 0.09105526 -0.043521486
000110 4f c3 de 3e 7d 3d 68 bc 93 fd c7 be f8 dd a4 be
       0.43508384 -0.014174816 -0.3906065 -0.322006
000120 db 81 b0 bd 18 1b ee 3b ee f6 0c be 11 97 15 be
       -0.08618518 0.0072664134 -0.13766071 -0.14608409
000130 35 5a c3 3d 14 78 05 3e 09 53 12 be df c8 b8 be
       0.0953869 0.13034087 -0.14289488 -0.36090752
000140 dc 04 1a 3e 68 12 10 bf ef 08 97 be c9 80 2e be
       0.15040916 -0.56278086 -0.29499003 -0.17041315
000150 06 63 81 3e 20 c0 3e be d1 85 8f be e2 db 96 3e
       0.2527086 -0.18627977 -0.2803178 0.29464632
000160 de 4b d8 3c d4 5e c5 3d 9c 3f 9f be c2 9c dd 3d
       0.026403364 0.09637228 -0.31103218 0.10820915
000170 29 d1 af 3d b0 28 20 3d 89 1b b2 3c 26 ee c0 3c
       0.08584816 0.039101303 0.021741645 0.023551058
000180 f0 f5 fa 3d 67 cc b1 3d 39 ae e6 bd 74 be 41 3e
       0.1225394 0.08681565 -0.11263699 0.18920308
000190 79 3c 7b 3e bf 00 c0 be 4a 0e 21 3e 15 49 e3 be
       0.24534787 -0.3750057 0.15728107 -0.44391695
0001a0 c4 3e b8 be fc b6 b9 be 52 b8 ad bd 04 c6 b3 3e
       -0.35985386 -0.36272418 -0.08482422 0.3511201
0001b0 c7 50 b9 be f3 0b ad be fd ee a0 be 2b a3 03 3e
       -0.3619444 -0.3379818 -0.31432334 0.12855212
0001c0 84 bf f2 bd 99 eb 31 be dc 7f b9 3e 0a 58 6d 3e
       -0.11852935 -0.1737503 0.3623036 0.23178115
0001d0 6d 1a 70 3e 7a 0b b7 3d bb 3b 26 bd 77 f8 13 3e
       0.2344758 0.08937736 -0.040584307 0.1445025
0001e0 8c ed c8 be 7d c7 07 be e2 d3 bf bd 97 9a 0e be
       -0.39243734 -0.13259692 -0.09366585 -0.13926159
0001f0 45 57 be bd 6e 69 90 3e dd 53 84 be 34 87 86 3e
       -0.09293989 0.28205436 -0.25845233 0.26275027
000200 2a b6 b1 3d 7f ed 63 be 78 aa f4 bc 67 d5 d8 3e
       0.08677323 -0.22258566 -0.029866442 0.42350313
000210 29 54 62 be c4 fa bb be 3c 43 40 3c b8 a4 8e 3d
       -0.22102417 -0.36714756 0.01173478 0.06965011
000220 25 cb 10 be c5 90 85 bd e4 da 63 3d 25 28 82 3d
       -0.14139993 -0.06521753 0.055628672 0.06355313
000230 33 44 05 3e b3 11 90 be 8b 5b 02 3e e5 90 c0 bd
       0.13014297 -0.28138503 0.12730233 -0.094026364
000240 c6 7e 7b be e7 a2 1b be 6b 9a 41 be fb ff 5a 3e
       -0.24560079 -0.15198861 -0.18906562 0.21386711
000250 82 53 8e 3e cd 1c 65 3e d2 40 4c bd 46 ad b9 be
       0.27798086 0.22374268 -0.049866505 -0.3626501
000260 e1 12 80 bc 86 42 97 bd 11 33 d7 3d fd da 87 bd
       -0.015634002 -0.07385735 0.10507787 -0.066335656
000270 e8 59 c7 bc 9a aa f8 be 58 06 ac 3e 46 d0 4f be
       -0.024334863 -0.4856766 0.3359859 -0.20294294
000280 d1 30 71 be c3 07 a1 3c 6a ce 1f 3c 91 26 3c 3e
       -0.23553778 0.019657021 0.009753803 0.18374087
000290 f9 ef c2 be cd cf 28 3e 02 08 23 3e e7 45 fb 3d
       -0.3807371 0.1648552 0.15921023 0.12269192
0002a0 48 55 26 3d fe 16 96 bc 66 8b e8 bb e7 ba 80 bd
       0.040608674 -0.01832151 -0.0070966957 -0.06285649
0002b0 ec 36 f8 bd d5 90 c6 be 65 0d dd bd e5 cf 19 be
       -0.121198505 -0.38782373 -0.107935704 -0.15020712
0002c0 2c 9c 91 be 21 d7 06 be 31 14 9b be da 93 9c 3e
       -0.28439462 -0.13168003 -0.30288842 0.30581552
0002d0 2a 00 f5 3d ab 29 5b be 02 d0 a5 be 54 12 5a 3e
       0.11962922 -0.21402614 -0.3238526 0.21296054
0002e0 9a e4 3e 3e ee 76 9f be e2 b9 1b 3d 72 56 16 be
       0.18641892 -0.31145424 0.03801907 -0.14681414
0002f0 68 9e cb be c0 57 d6 3c ef 7c 41 be 2e 1e a5 be
       -0.39769292 0.02616489 -0.18895315 -0.32249588
000300 87 8e 20 bb bf a5 90 3d ae 4d c2 bd 8a 18 0a bd
       -0.0024499015 0.070628636 -0.094874725 -0.03371481
000310 0b a1 86 3e 03 95 5e be 4a 78 3b bd 20 7b 98 3e
       0.2629474 -0.21736531 -0.045769013 0.29781437
000320 db c7 c6 3d f6 bf ae 3d 5d cb bd 3e d2 41 89 be
       0.09706088 0.085327074 0.37069216 -0.2680803
000330 1a 42 84 3c 22 9e 9b be 08 ed a1 be ab 2c 7c be
       0.0161448 -0.30394083 -0.31626153 -0.24626414
000340 06 9e 22 be f8 2a 72 3c 99 f6 6f 3d c7 38 17 bb
       -0.15880594 0.014780752 0.058584783 -0.0023074613
000350 c1 f0 23 3d 53 55 d2 bd 4b d7 4c 3e 18 7d 2f 3e
       0.040024523 -0.102701806 0.20004003 0.17137563
000360 6c 24 33 be f8 79 ed be bf 55 90 bd 24 14 cd 3d
       -0.17494363 -0.46382117 -0.07047605 0.10013607
000370 79 02 a6 be 34 b6 7a be af 14 f5 3e e9 0b 46 3c
       -0.3242376 -0.24483567 0.47867343 0.012087801
000380 93 94 e6 be c8 66 15 3e 02 46 40 3e 3e e1 ca be
       -0.45035228 0.14589989 0.18776706 -0.3962497
000390 a3 0e 6a be 58 6e a8 3e a8 fc 61 3c 01 c1 c5 3c
       -0.22857146 0.32896686 0.013793148 0.024139883
0003a0 0f fa 29 be a7 cd 84 3e 84 38 ea bd 88 3a 36 be
       -0.16599296 0.2593815 -0.11436561 -0.17795765
0003b0 bc dc 86 be d9 f8 b3 3e c0 92 62 3d e7 b6 bc be
       -0.26340282 0.35150793 0.055315733 -0.36858293
0003c0 ee c4 b3 be 26 33 c6 be 08 69 34 3e 90 40 b2 be
       -0.35111183 -0.38710898 0.17618191 -0.34814882
0003d0 b9 ae 09 bd c0 78 80 3e 98 30 dc 3d dc ea 7b 3e
       -0.033613894 0.25092125 0.10751456 0.2460131
0003e0 7d 8f f7 bd 22 ee 94 be 8a 72 f7 bd f8 41 20 be
       -0.12087915 -0.2908793 -0.120823935 -0.15650165
0003f0 35 89 04 bb 17 61 6e be 44 95 32 bb 02 cb 05 3c
       -0.0020223383 -0.23279224 -0.0027249614 0.008166077

conv1.bias f4 [32]
000000 a2 03 ee be ae cb ad bd 68 d1 82 be 3b 8d 45 be
       -0.46487147 -0.084861144 -0.2555039 -0.19292156
000010 e8 a2 2b be 3d ed 5b be 5a 94 aa bd c5 d5 85 be
       -0.16761363 -0.21477218 -0.08329077 -0.26139656
000020 f9 99 8e be 14 0b 95 be 81 5d c1 be e9 29 8b be
       -0.27851847 -0.29110014 -0.3776665 -0.27180412
000030 1d 2b 20 be 87 3d b4 be d3 82 73 be fe fd 3e be
       -0.15641446 -0.35203192 -0.23780374 -0.18651578
000040 2a 8e eb bd a3 7d e4 be 8f eb ad be ff 62 4f 3d
       -0.11501725 -0.44627103 -0.3396878 0.05063152
000050 5a f4 f9 bb cb d7 f6 bd e1 1a 0c be 0a 37 df be
       -0.007628006 -0.12052878 -0.13682128 -0.4359668
000060 23 cd f7 bd c9 db 01 bf 0d 8b 96 be 87 1c 76 be
       -0.120996736 -0.5072599 -0.29402962 -0.2403432
000070 cb a8 61 be 19 72 a7 be b1 70 85 be 23 a0 e9 be
       -0.22037046 -0.32704237 -0.2606254 -0.45629987

conv2.weight f4 [64, 32, 3, 3]
000000 36 fd 7f 3c 7c 7b 76 bd 6c 50 7d 3a 9e dd 07 bc
       0.015624335 -0.060176358 0.0009663168 -0.008292584
000010 20 de c0 bc 59 db bb bc b5 e9 77 bd cb e9 14 bc
       -0.023543417 -0.022931742 -0.060525615 -0.009088944
000020 1a 71 7f bd 1f e5 a3 bc 62 09 48 bd c7 d9 45 bd
       -0.06236372 -0.020006714 -0.048837073 -0.04830339
000030 10 85 e5 bc 3c 7e 28 3d db f6 07 bd 7d 7f e7 3b
       -0.02801755 0.04113601 -0.033194404 0.0070647583
000040 92 2e eb bc f1 77 7e bd f1 b7 70 bc ed 73 59 bd
       -0.02870873 -0.062126104 -0.014692293 -0.05308907
000050 1e 62 57 bd a3 d9 a1 bc 0e a4 7f bd b1 37 d3 bc
       -0.052583806 -0.019757098 -0.062412314 -0.025783392
000060 1a c4 6d bc 5d 83 68 bd 57 6d 97 bc 3e 64 22 3c
       -0.014512086 -0.056765903 -0.018484754 0.009911595
000070 31 6b 95 bd ae 54 5f bd af 7c 93 bd 4b 76 89 3c
       -0.07295836 -0.054524116 -0.07201516 0.01678004
000080 60 f1 bd bc b4 c3 52 bc 94 6f 21 bd af 87 b9 3c
       -0.023186386 -0.012864042 -0.03941305 0.022647707
000090 0b ec e6 3c 75 40 87 3c c2 05 7b bd 87 86 64 bd
       0.028188726 0.016510228 -0.061284788 -0.055792358
0000a0 25 26 4d ba b0 2a 76 bd ea fb e8 3c cb 37 e6 3c
       -0.00078258134 -0.060099304 0.028440434 0.028102776
0000b0 0b ef 95 bc 66 27 8e 3c 12 ef 48 3b a1 ff a0 3c
       -0.018302461 0.017352771 0.0030660075 0.019653143
0000c0 07 a7 13 3b 07 eb e4 3b 6c b8 1f bc 61 22 35 bd
       0.0022529976 0.0069860253 -0.009748559 -0.04422224
0000d0 18 f7 24 bd 26 ad 1c bb d6 5d 95 bc 03 90 8b bb
       -0.04027471 -0.0023906915 -0.018233221 -0.004259111
0000e0 83 30 75 bc f2 66 66 bd cc 54 af 3c ac a5 52 3d
       -0.014965179 -0.05625052 0.021402739 0.05142753
0000f0 60 f9 40 bd ac fe 30 bd 30 6f 28 3d 5f 25 a7 bd
       -0.047112823 -0.043211624 0.04112166 -0.08161425
000100 88 96 4c 3c cb 55 fd bc 77 f0 c0 bc 1c 26 32 bd
       0.012487061 -0.030924698 -0.023552163 -0.043493375
000110 41 5b a7 3c 81 11 9d 3c 65 2c 91 bd fa 5e e6 3c
       0.020429255 0.019173386 -0.07088546 0.02812146
000120 7b e9 9c bc 82 49 8d bd 84 63 22 3b df ab 92 bc
       -0.0191543 -0.06898786 0.0024778554 -0.01790422
000130 dd f9 2b 3c cc 3d f9 bc d9 b5 d2 bc bc ee 80 3a
       0.010496584 -0.030424975 -0.025721477 0.0009836773
000140 43 78 16 3d d6 44 2c bd 6a 33 54 3c d2 ce 2e 3d
       0.036735784 -0.042057835 0.012951711 0.042677708
000150 6a ba aa bc aa af 23 bd e6 52 75 3c 47 e7 20 3d
       -0.020840842 -0.03996245 0.014973378 0.039283063
000160 0e 8a 47 bd 7a b9 66 bd 2c 47 10 bd 6a 98 ae bd
       -0.048715644 -0.056329228 -0.035224125 -0.085251644
000170 63 e4 25 bd 93 0d 5a bd 01 29 a4 bc a2 ba 1b bd
       -0.04050101 -0.0532356 -0.020039083 -0.038019784
000180 51 e4 be bc 73 9b 90 3c 0c 2c 43 bd 40 4d e4 bc
       -0.02330223 0.017652249 -0.04764943 -0.027868867
000190 e9 68 53 3c 18 14 1b bd 1e fb ff bb e6 4d 25 bd
       0.0129034305 -0.03786096 -0.007811918 -0.040357493
0001a0 53 b5 fc bc c6 d0 c0 3c f8 22 41 bd 46 06 43 3d
       -0.03084818 0.023537051 -0.04715249 0.047613405
0001b0 2b 07 84 bd da 51 02 bd fe 1f 0a bd 61 61 a0 ba
       -0.0644668 -0.03181634 -0.033721916 -0.0012236052
0001c0 ca ad e5 bc 18 82 8b 3c 0c 95 77 3c 5b 75 86 3c
       -0.02803697 0.017029807 0.015111219 0.016413381
0001d0 9e fd 7e bd 45 bd 8e bd a3 9a 6e bd 59 36 98 bd
       -0.062253587 -0.06969694 -0.05825294 -0.07432241
0001e0 f7 ab d5 3c 64 1b cf 3c 1d c3 8e bd 81 a3 ab bd
       0.026082976 0.025281616 -0.06970809 -0.08380795
0001f0 8a 23 1a 3b 0d 41 51 bc 1a fa 80 ba c2 b3 c6 3c
       0.0023519718 -0.012771857 -0.0009840161 0.024255637
000200 7a 9b 39 3b 33 b9 63 bd 45 4e 22 bc f9 6e fe bc
       0.002832143 -0.05559654 -0.009906356 -0.031058775
000210 8e 21 92 bb d5 d7 d8 bc ab 11 56 3c 51 13 b3 bd
       -0.0044595664 -0.026470104 0.013065736 -0.08743919
000220 b2 ea be bd d0 64 fa bc ab 14 93 bd 12 f1 8f bd
       -0.09322108 -0.03056565 -0.071816765 -0.070284024
000230 95 d3 98 bc bd ca 12 bd e7 2b 44 3d c4 81 2e bd
       -0.018655578 -0.035837878 0.04789343 -0.042604223
000240 92 5f 86 bd 3a 16 1c bd ac 3b 1b bd fb 5a a4 bc
       -0.06561197 -0.038107134 -0.037898704 -0.020062914
000250 98 b4 70 bd 50 2d 4b bd fe bc 80 3c 01 ab 7e bd
       -0.058765978 -0.04960376 0.015715118 -0.0621748
000260 37 e1 7b 3c e4 75 f7 bc 19 61 ce bc c3 78 5f bd
       0.01537352 -0.030207582 -0.025192784 -0.054558527
000270 57 5c 0d bd ef 04 65 bd f9 11 20 bd fe 2d a3 3c
       -0.03451189 -0.05591291 -0.03907964 0.019919392
000280 88 d7 43 bd c6 62 79 3c ea ce 91 3b 5d 98 16 bd
       -0.04781297 0.015221303 0.004449715 -0.0367664
000290 3b dc 44 bc d3 fd a7 bd 98 37 e0 bc 12 02 59 bd
       -0.012015398 -0.0820271 -0.02737026 -0.05298049
0002a0 9b a2 7b bd ff 0a 1f 3d c5 65 40 bd f1 84 06 3d
       -0.06143437 0.038828846 -0.046972055 0.032841627
0002b0 ab 26 c3 bb 3c c5 6c bc f1 d1 09 bd 0e d9 53 bc
       -0.0059555373 -0.014451321 -0.03364748 -0.012930168
0002c0 53 d5 dc 3b 50 97 3f 3c fc 04 0d bd e6 4c 39 3d
       0.0067392974 0.011693791 -0.03442858 0.04523935
0002d0 1e 16 62 bd 5f 36 46 bd b3 e9 28 bd 1a c5 c0 bc
       -0.055196874 -0.048391696 -0.041238498 -0.023531485
0002e0 3e 79 48 39 bf 71 63 bd 7c ce d2 3b ab ed 3e bd
       0.00019118653 -0.0555284 0.0064333063 -0.046613377
0002f0 38 28 13 3d 18 ac a5 bd 9b ab 0c bd 35 28 aa bd
       0.035927027 -0.08089465 -0.034343343 -0.0830845
000300 92 a4 46 bb 6b 8c 0f 3d 51 12 08 bd 02 4a b9 3b
       -0.0030310494 0.035046022 -0.033220593 0.0056545744
000310 ef 7e 0d 3d 0a d6 69 bd 7e 0e 9e bd ac ef c4 bc
       0.03454488 -0.05708889 -0.07717608 -0.024040066
000320 10 fc 09 bd 46 66 88 3c cb 08 04 bd 41 00 15 3c
       -0.03368765 0.01665033 -0.032234948 0.009094299
000330 53 b9 de bc 8b 0c a4 bd fd 88 4c bb a7 cd 92 3c
       -0.027187979 -0.08010205 -0.003120958 0.017920328
000340 3a 75 93 bd 54 70 8b bd 33 73 90 bd 0d 4e c1 bb
       -0.072000936 -0.06808534 -0.070532225 -0.005899197
000350 ed 64 0f bd 15 dd 01 3d 85 9e f5 bc 8f bc 9f 3c
       -0.03500836 0.03170498 -0.029982815 0.019499091
000360 64 85 6c 3c 6f af 2f bd 0e f0 93 3c 99 4f 1b bd
       0.0144361 -0.042891916 0.018058803 -0.037917707
000370 89 16 2e 3d f4 c5 3e 3d b6 09 5e bd 0b d6 b3 bb
       0.04250196 0.0465755 -0.05420848 -0.0054881624
000380 c1 8f 62 3d 85 d3 4e bd 11 dc 1d bd 65 7f 36 bd
       0.055312876 -0.05049469 -0.03853995 -0.044555087
000390 3c 51 41 bd 0b b4 e6 3c d2 97 40 bd c3 8c 00 3c
       -0.04719661 0.028162023 -0.047019787 0.00784606
0003a0 34 62 13 bd 61 29 96 bc bc af 2f bc 19 59 2f 3d
       -0.035982326 -0.018330278 -0.010723051 0.04280958
0003b0 81 71 53 3d da d5 1e bd 8b fb a2 3c 4a 7e 3b bc
       0.051621918 -0.038778163 0.019895336 -0.011443684
0003c0 59 07 ea bc 6b a4 c6 3b 7b dd dc 3b 3c da 16 3c
       -0.028567957 0.0060620806 0.0067402697 0.009207305
0003d0 26 63 58 bd 39 5f 92 bd cb 4d b2 bd 18 d8 17 bd
       -0.05282893 -0.071470685 -0.08706244 -0.037071317
0003e0 c7 07 35 bc 8a 0f 5d 3d 4a 80 3c 3d a5 ea 22 bd
       -0.011049218 0.053969897 0.046020783 -0.039774556
0003f0 f1 12 8a 3c bb 58 40 3c 3e 95 bf bb 40 bc d5 3b
       0.016854735 0.011739905 -0.0058466485 0.0065226853

conv2.bias f4 [64]
000000 57 7b 8c bb ba 3f 46 bc 22 7c 97 bd 6b b5 2a bd
       -0.004287164 -0.0121001545 -0.07396723 -0.04167692
000010 22 47 8d bd c5 0b 1d bd 39 cc b5 bc a2 1e 7a bd
       -0.06898333 -0.038341302 -0.022192108 -0.06106437
000020 75 ad c1 bd c5 8d 71 bd 34 be 35 bd d6 d0 96 3d
       -0.094569124 -0.058973093 -0.044370845 0.07364051
000030 9b ae 05 bd 6d 5a 83 bd 08 5f 2e bd b3 b1 e2 bd
       -0.03263722 -0.06413732 -0.042571098 -0.1106905
000040 b8 03 9a bd f4 63 58 bd 2e 02 78 3d b9 b8 5c bd
       -0.075202405 -0.052829698 0.060548954 -0.053887103
000050 fd 32 fe bd c0 8a 9a bd 3e 8f 80 3c 90 87 c3 bd
       -0.12412069 -0.07545996 0.015693303 -0.09547341
000060 c9 cb 59 bd 11 5d 75 bd 60 3c 0f 3e b2 fe ba bd
       -0.05317286 -0.05990321 0.13987875 -0.091306105
000070 2a 99 bc 3d 8d 96 e0 3c 32 8a 48 bc 9b 8a a2 bd
       0.09208901 0.027415538 -0.01223998 -0.07936593
000080 3e f4 3d be 10 ab 60 3b 68 ac be bd c8 79 3d bc
       -0.18550202 0.0034281649 -0.09310228 -0.011564679
000090 18 b5 0b be 46 f6 89 3d 44 bc b9 bd 7f ac 87 bc
       -0.136433 0.06736426 -0.09069112 -0.016561745
0000a0 d8 70 a4 bc 59 7d 74 bb a4 21 8d bc ad 61 9e bd
       -0.02007334 -0.0037306158 -0.017227955 -0.07733474
0000b0 fb 23 59 bd 6f 36 ce bd fc 58 80 bd b4 03 de bc
       -0.05301283 -0.10068976 -0.062669724 -0.027101375
0000c0 7c 1f 38 bd 31 9b f0 bb 98 85 25 be 82 be 11 bd
       -0.0449519 -0.007342719 -0.16164243 -0.035582073
0000d0 b8 37 01 be 11 d6 3f bd d6 30 01 be 0e 6d ad bd
       -0.12618911 -0.04683501 -0.12616286 -0.08468066
0000e0 23 f5 83 bd 57 de 6b bd 7c af 09 be dc 2f e7 bd
       -0.064432405 -0.057585087 -0.13445848 -0.11288425
0000f0 67 08 99 bd a9 f8 8b bd ca 31 95 bc 37 58 9f bb
       -0.07472306 -0.068345375 -0.018212218 -0.004862811

conv3.weight f4 [128, 64, 3, 3]
000000 0b 43 10 3c a3 c7 b7 3c d6 fd 96 ba 8e 73 97 3c
       0.008805047 0.022434061 -0.0011519741 0.018487718
000010 59 57 d1 3c ab 29 55 ba a6 9a b9 bc 5c 65 05 3d
       0.025554346 -0.0008131514 -0.02265675 0.032567367
000020 0e 3f ab bc 44 c8 37 bd 3f fa c3 3c 49 a3 9c bc
       -0.02090409 -0.044868723 0.023923038 -0.01912083
000030 1c df 99 bc 28 35 01 bc d7 b4 22 bd 67 f4 c6 bc
       -0.018783145 -0.007886209 -0.039723244 -0.024286462
000040 1b 4b 8c 3c ff 1c b4 bc d1 54 bd bc 9b b7 11 be
       0.017125657 -0.021986483 -0.023111733 -0.14230196
000050 51 72 2d be e3 f8 68 bd 53 ef 40 bd 65 d6 bd bc
       -0.1693814 -0.056877982 -0.047103237 -0.02317352
000060 59 bb f3 bc 87 56 d3 bd 10 fa 4f be 1f a1 a1 bd
       -0.02975242 -0.10319238 -0.20310235 -0.078920595
000070 ba ba 25 3c 19 3d 28 3d b9 75 48 bd 90 c5 f7 bd
       0.01011532 0.041073892 -0.048940394 -0.12098229
000080 1d dc c9 3d ed 00 e2 bc b1 7a 57 bd 54 7e 03 3d
       0.098564364 -0.027588332 -0.052607242 0.032102898
000090 48 75 b0 bd d7 e6 4c bd a3 77 a9 3c 6d 08 46 bb
       -0.086161196 -0.050024834 0.02068693 -0.0030217425
0000a0 a5 4d 1f 3e 88 75 d8 3d 45 b0 8a bc 37 22 d5 3d
       0.15556963 0.10569292 -0.016929755 0.104069166
0000b0 0d b4 e9 3d 55 41 3c bd e3 62 c9 3d a5 60 81 3d
       0.11411295 -0.045960743 0.09833314 0.063172616
0000c0 bf fd c6 bc 9e 40 2a 3d 47 31 5b be 14 a4 3b 3c
       -0.024290917 0.04156553 -0.21405517 0.0114526935
0000d0 84 97 ac bd 43 0c 69 3d 73 32 ab 3b ea 7b 23 3e
       -0.08427337 0.05689646 0.00522452 0.15965238
0000e0 4c 0d 92 3d 06 8a 60 3c 01 6c 06 3d 3e 9d 19 3e
       0.071314424 0.013704782 0.032817844 0.1500139
0000f0 59 77 0e 3d 71 39 dc bc 08 f3 5f 3c c6 03 ef 39
       0.034781788 -0.026882859 0.013668783 0.00045588444
000100 ed ad fa bc 30 d8 80 bd 28 9b b8 3c a8 98 95 bc
       -0.030600512 -0.062912345 0.022534922 -0.018261269
000110 72 a4 03 bd 7e 04 1f 3d ce f6 93 3c a1 80 ca 3c
       -0.03213925 0.038822643 0.018062022 0.024719538
000120 a6 1e 30 3d a3 89 d8 bd ea 70 ad bd 0e 2d 73 3d
       0.04299798 -0.10573127 -0.08468802 0.05936914
000130 6a c0 39 be 50 59 6c 3b bc fd 09 3e 1f c3 67 bd
       -0.18139806 0.0036063977 0.13475698 -0.056582566
000140 e4 b8 a2 3c 54 17 20 bd 18 02 80 3d 41 7d 68 3d
       0.019863553 -0.039084747 0.06250399 0.056760076
000150 1c 6c 53 3e 02 09 c8 3d de b5 42 3d 44 c0 df 3d
       0.20646709 0.09767343 0.047536723 0.10925344
000160 ec 11 24 3e 18 41 16 bd e5 aa 7a 3d 8e e4 b2 bc
       0.16022462 -0.036683172 0.061198134 -0.021837499
000170 c8 86 5a be 94 01 cf bb f4 91 1c be 4a ce 07 3d
       -0.21340477 -0.006317327 -0.15290052 0.033155717
000180 d3 67 46 bd 8d 50 08 be 28 f4 99 bd c0 d4 3a be
       -0.04843886 -0.13311978 -0.07517272 -0.1824522
000190 5b 1d 53 3d 01 ce 24 3e 2a 64 cb bd 50 b4 8f 3d
       0.051541667 0.16094209 -0.09931214 0.07016814
0001a0 e8 e5 80 3d 34 75 19 be b6 aa 9a 3d 70 c0 30 3c
       0.06293851 -0.14986116 0.07552092 0.010788068
0001b0 f8 23 af bd 74 9a a5 bd 27 32 9b 3d 4a a5 ea 3d
       -0.08551782 -0.080861 0.07577925 0.11457308
0001c0 1b 3d 32 bd fe e5 46 3d d4 67 24 3c 4e 3a 72 3e
       -0.043515306 0.04855918 0.01003452 0.23655054
0001d0 3d 28 2e 3e 20 9f b7 3b e0 72 90 3b d2 cd 1b 3d
       0.17007537 0.005603686 0.0044082254 0.038038082
0001e0 7e 34 12 bd 97 e9 0a bd 5f ef 1e bd 62 bf bd bc
       -0.03569459 -0.033914175 -0.0388025 -0.023162547
0001f0 80 33 b3 bc ce 2c f8 bc ed 6e 1e be 83 72 8d bd
       -0.021875143 -0.030294802 -0.15472002 -0.06906607
000200 77 0d 8b 3d 8a cf 94 bd 32 d0 3b be 15 55 e8 3c
       0.067896776 -0.072661474 -0.18341139 0.028360883
000210 80 bd ae bc 21 ba a1 3d c9 6e 9d 3e 0d 58 21 bd
       -0.021330595 0.078968294 0.30748585 -0.039390612
000220 c6 91 4b bd a1 f5 8e 3c 0e eb de bc 59 41 e5 3c
       -0.049699567 0.01745111 -0.027211692 0.027985262
000230 49 e5 83 bd c3 dc a2 bc 3f 9b c7 bb 43 5e 18 3c
       -0.06440217 -0.019880658 -0.006091505 0.0092998175
000240 00 25 ce 3d 8b 63 da 3c e7 c7 85 3c a2 76 00 3d
       0.10065651 0.026658794 0.016330672 0.031363137
000250 8d fa c8 3c 6b 19 95 3d 38 dd 8e 3d 8a 1b 83 3d
       0.024533534 0.07280239 0.06975788 0.06401737
000260 e5 39 7b bc af c6 96 bc bc 5c 44 bc 19 92 53 bb
       -0.015333627 -0.018405287 -0.011985 -0.0032283126
000270 39 a8 f9 3c ea fb 51 3c 8a 2c 80 3d 9c 47 2c 3d
       0.030475723 0.012816409 0.06258495 0.04206048
000280 b6 1d d7 3c bf bd 2c 3d 20 88 4d be 9c 1f e8 bd
       0.026259284 0.042173143 -0.20071459 -0.11334154
000290 0c 9a 48 bc da f3 05 be 82 35 86 bd d7 cc 8c 3d
       -0.012243759 -0.13081303 -0.065531746 0.068750076
0002a0 3e 27 40 bd 43 8c 24 3e 14 c1 a9 3e de a3 bc 3c
       -0.046912424 0.1606913 0.3315512 0.023027357
0002b0 c0 ba e2 3c 80 31 df 3c c4 50 13 3d 26 07 53 bc
       0.02767694 0.027245283 0.035965696 -0.012880122
0002c0 00 bb 49 3a 34 69 f7 39 a3 38 ef bc a0 36 42 bc
       0.00076954067 0.00047189894 -0.029201811 -0.011853844
0002d0 d5 7f 3d bc 86 87 c1 3b a8 d6 a7 bc ab b9 7a bd
       -0.011566122 0.005906048 -0.020488098 -0.061212223
0002e0 c9 6e cb 3c 02 45 18 bd 57 e8 25 be c4 11 31 3d
       0.0248331 -0.037175186 -0.16201912 0.043229833
0002f0 bf 4d 5d 3d 8a 1a 72 bd 28 45 ad bd d1 cd 80 3d
       0.054029223 -0.05910734 -0.08460456 0.06289256
000300 6e 81 83 3d a4 10 21 3c 93 5a ea bd c8 ce 1a bd
       0.06421171 0.009830628 -0.11443057 -0.03779486
000310 13 a0 8d 3d ca b9 4a 3d 40 67 25 bc af 39 5a bd
       0.06915297 0.04949359 -0.0100954175 -0.053277668
000320 93 7f 16 bc 1f 14 60 bc b3 51 27 bb 46 2b 6f 3c
       -0.0091856895 -0.013676672 -0.0025530874 0.01459772
000330 5c 01 d3 bc fa c9 b6 bd ea 67 9e 3d 51 fa bb bd
       -0.025757484 -0.08925243 0.07734664 -0.091786034
000340 ab ba ad bd 3c 3b 8d 3d 53 f6 aa 3d e5 8b b2 3d
       -0.0848287 0.06896064 0.08347764 0.08718089
000350 a9 8e b0 3c 23 76 0b bc 64 0d 00 3e c8 18 11 3d
       0.0215524 -0.008512053 0.12505108 0.035424024
000360 f1 e2 8b bb cb 5c 2d 3d f2 e5 20 3d 78 d6 cf bb
       -0.004268997 0.042324822 0.039281793 -0.0063427053
000370 1e 3a aa bc e8 85 02 3d 6d a1 12 bc cf f0 e0 3c
       -0.020779666 0.031865984 -0.00894962 0.027458576
000380 cd 2e ac 3c 0c d5 b3 3d 29 f0 85 3d e8 24 a0 3d
       0.02101841 0.0878087 0.065399475 0.07819539
000390 35 8f 0f bd 53 2c 77 3d 39 1c 9a 3d 34 c6 c3 bc
       -0.035048682 0.060345005 0.07524914 -0.023898222
0003a0 89 fc e1 3d eb ac 0b be d7 59 73 be 9f 36 9a 3d
       0.110344954 -0.13640182 -0.2376474 0.075299494
0003b0 9f ca 4b 3e 71 d8 b1 bd cd e8 04 be c3 82 d6 3d
       0.19901513 -0.08683861 -0.12979431 0.104741596
0003c0 f7 5a 50 bd 77 ec d5 3d 10 01 5d 3e 80 b4 57 bd
       -0.050868 0.10445493 0.21582437 -0.052662373
0003d0 b6 83 06 3d d0 a2 26 be 06 cf 1b 3d 6d 89 cd 3d
       0.032840453 -0.16273046 0.03803923 0.100359775
0003e0 67 d8 ed 3d 3f 77 16 3d 67 b8 3c 3e ae 2c f0 ba
       0.11613541 0.036734816 0.18429719 -0.0018323862
0003f0 40 dd 3f 3d 05 db b5 3d 59 50 19 bd 7e d9 d4 3c
       0.04684186 0.08879665 -0.03743014 0.025982615

conv3.bias f4 [128]
000000 e2 51 98 bd 07 70 62 bd d8 47 88 bd 7b 29 b6 bd
       -0.07437493 -0.05528262 -0.06654328 -0.088946305
000010 51 6c c2 3d 70 33 a4 bc dc 9d 9b bd 6e 4a 8e bd
       0.09493316 -0.020044059 -0.07598469 -0.0694779
000020 06 fc c9 bd 3f 42 e6 bc 37 d3 db bc 9a 22 2c bd
       -0.09862523 -0.02810776 -0.026834114 -0.042025186
000030 ed 0c ca bb 54 b6 a0 bd d3 1c 27 be c6 21 b5 bd
       -0.0061660917 -0.07847276 -0.1631959 -0.088443324
000040 86 dc 37 bd 03 89 00 be a9 37 28 be 20 78 17 bd
       -0.044888042 -0.12552266 -0.16427483 -0.036979795
000050 ec 0d 83 bc a4 a5 43 bd 49 cb 66 3d 34 09 f3 bd
       -0.01599785 -0.04776539 0.05634621 -0.1186699
000060 1b c5 8c bd a2 ee e1 bd e8 24 d3 bd 29 aa 65 bd
       -0.068735324 -0.11031844 -0.10309774 -0.05607048
000070 81 7e f5 bd 33 10 e6 bc 22 06 05 be 4a 1c 41 be
       -0.11987019 -0.028083896 -0.1299062 -0.18858448
000080 34 0d 98 3b 72 2a d0 bb 43 be 51 bd a4 de 24 be
       0.004640246 -0.006352716 -0.05120684 -0.16100556
000090 0b 99 e0 bd d9 69 c4 bd 83 6a 0b be f8 b9 7b bc
       -0.10966691 -0.09590501 -0.1361485 -0.015364163
0000a0 2c e1 e3 bc 69 aa bf bc 5a ef c1 bd bf 05 9f bc
       -0.027817331 -0.023396688 -0.09469481 -0.01941192
0000b0 2f 28 8a bd 84 ca 09 be b8 79 31 3c d2 fe 60 bd
       -0.06745946 -0.1345616 0.010832243 -0.054930516
0000c0 74 75 de bd d7 d3 9d bd 5f 06 f2 bc d0 b7 5b bd
       -0.10862246 -0.07706421 -0.029544054 -0.053642094
0000d0 78 3b 52 3b 99 da 1e ba 3b 24 04 bd 95 55 19 bc
       0.0032078903 -0.0006059795 -0.032261115 -0.009358783
0000e0 3f 44 35 bd d2 df ae bc 4c c5 95 bd 75 b9 52 bd
       -0.044254538 -0.02134696 -0.07313022 -0.051446397
0000f0 d2 80 ab 3c 3c 6e 72 3d 19 97 2b bd f4 bf 81 bd
       0.02093545 0.05918716 -0.041892145 -0.0633544
000100 d7 8a d0 bd e9 ab 47 bd 38 6d a0 bd a1 74 99 bd
       -0.101827316 -0.04874793 -0.07833332 -0.07492948
000110 c4 db 1c bd 13 b3 5a bd d9 be 89 bd 1a b0 15 bd
       -0.038295522 -0.053393435 -0.067258544 -0.036544897
000120 6e 7c e4 bc 05 92 33 3c dc 31 dd bc 0a ef a1 bd
       -0.027891364 0.010960107 -0.027001314 -0.07906921
000130 21 e1 a3 bc 1c 7a 4c bd 2c 34 91 bd 95 20 00 be
       -0.02000481 -0.04992114 -0.07090029 -0.12512429
000140 39 7d 92 bc 1d 1e 8b bd 71 84 59 3d 88 e8 97 bd
       -0.017881976 -0.06792853 0.05310482 -0.07417399
000150 86 6c a9 bb 5c aa ef bd 64 5a ea 38 20 66 26 bd
       -0.0051704077 -0.11702415 0.00011174826 -0.040624738
000160 26 13 94 bd bc cf 1d bd 8d 89 75 bd 3a 82 fc bd
       -0.07230215 -0.03852819 -0.05994563 -0.12329526
000170 86 a7 24 3c 17 22 a4 bd 0f 64 1f be 9a af a0 bd
       0.010049706 -0.080143146 -0.15565513 -0.07845993
000180 b7 78 2b bd 37 7d 25 be 05 5c b8 3b d6 f0 42 3c
       -0.04186317 -0.16161047 0.005626204 0.01189824
000190 32 d0 40 3d 89 06 9b bd 6c 3a 89 bd 66 45 cd ba
       0.04707355 -0.07569606 -0.06700596 -0.0015660941
0001a0 d9 c4 d1 bc 46 a7 53 bd f0 52 ec 3c 2b 3e 1d be
       -0.02560656 -0.051673196 0.028848141 -0.15355746
0001b0 de 0e 7d bd 4b 16 cc bd 52 e1 50 bd 1d f2 cc ba
       -0.061781757 -0.099651895 -0.050996132 -0.001563612
0001c0 25 e9 e6 bd b9 03 87 3c 3a cc 8a ba af 29 62 bd
       -0.112749375 0.016481267 -0.0010589429 -0.055215534
0001d0 ef ee 4f bd 9c 94 b9 bd 1a 7a 50 bd d4 22 b8 bd
       -0.050764974 -0.09061548 -0.050897695 -0.08991018
0001e0 d8 d1 81 bd 08 27 62 ba 8c 6e 86 bd 53 01 b5 bc
       -0.06338853 -0.0008627032 -0.06564054 -0.022095358
0001f0 1b 32 65 bd 1d ed fa bc 87 f9 c0 bc d5 96 11 bc
       -0.055955987 -0.030630643 -0.023556484 -0.008886059

fc1.weight f4 [10, 128]
000000 75 4a 08 be e9 78 51 be 76 dd c3 3c fb 8b 0f bd
       -0.13309653 -0.2045628 0.023909312 -0.035045605
000010 03 27 48 be c8 33 95 3a 80 14 c6 bd 66 99 48 be
       -0.19546132 0.001138323 -0.09671879 -0.19589767
000020 3b 91 06 be ce 89 3d bc 33 b4 00 be 7f 5a 37 3d
       -0.13141339 -0.0115685 -0.1256874 0.04476404
000030 5c 9d 0f be 4b 91 f2 3c 62 48 d9 bd d9 c1 93 be
       -0.14024872 0.029610297 -0.10609509 -0.28858832
000040 59 ce 0d be 1c b5 a8 be 03 9c 49 be 01 92 b8 3d
       -0.13848247 -0.32950675 -0.1968842 0.09012223
000050 3b e1 f9 3d 0f 2d 9c 3d 9e c3 af 3d 50 58 d2 bd
       0.122011624 0.07625782 0.08582233 -0.102707505
000060 9a c1 2f bc d3 a9 ec bb f0 ee 47 be 7d 7b 45 be
       -0.010727311 -0.007222393 -0.19524741 -0.19285388
000070 09 63 18 3e 3f 2d 0e 3d 18 85 2a be 04 dd 26 3e
       0.14881529 0.03471112 -0.16652334 0.16295248
000080 0c c1 da be e8 08 95 3d b4 77 73 3c 11 29 41 bd
       -0.42725408 0.07277089 0.014860082 -0.047158305
000090 86 cc a6 3c 9f 25 16 be 98 28 bb bb f9 f7 e2 3c
       0.020361196 -0.14662789 -0.0057116263 0.027706133
0000a0 f6 e5 34 3e 5d 30 d6 3d 8a f9 ad bc ae 83 0a be
       0.17665848 0.10458443 -0.021237154 -0.13526794
0000b0 e2 7a 3e bd 48 b8 7d be 84 b2 a9 3d 3c d2 df 3b
       -0.04650391 -0.24777329 0.08286002 0.006830482
0000c0 aa 3e 69 be f3 87 bd be a2 03 c0 bd b0 56 20 3e
       -0.2277781 -0.37017784 -0.09375693 0.15658069
0000d0 3d 75 d1 3c 7b 34 3c bd d8 ed ee bc 1b b5 37 3e
       0.025568599 -0.045948487 -0.029166147 0.1794018
0000e0 64 2e ee bb 35 ce 4c bd b5 3b 64 be 36 a1 2e be
       -0.007268714 -0.05000134 -0.22288401 -0.17053685
0000f0 61 2a ab be a8 7b ca bc 6d 76 36 be dc d0 9d bc
       -0.3343077 -0.024717167 -0.17818613 -0.019264631
000100 a6 d9 f6 bd c8 8a 4b 3d 06 dc a4 bd b1 83 ca bd
       -0.12053232 0.0496929 -0.08049779 -0.098883994
000110 8b f5 ad 3c b6 65 45 be 83 5c 8c bd 2c ce 0d 3e
       0.021235248 -0.19277081 -0.06853583 0.1384818
000120 47 ff 05 be 2c 2b 38 bd e0 c0 8a 3c 36 f4 95 bd
       -0.13085662 -0.044963047 0.016937673 -0.0732197
000130 9a d7 0f bd 0d f2 6a bd 1b 9c 28 be eb 23 05 be
       -0.035117723 -0.057359744 -0.164658 -0.13001983
000140 b2 a5 fe 3c 1e ed a0 bd 5b 80 3c bd f7 a0 57 3d
       0.031084869 -0.078577265 -0.046020847 0.052643742
000150 29 6e 15 be e4 77 59 3d 5d 58 93 3c 46 c9 38 be
       -0.14592804 0.053092852 0.01798647 -0.1804553
000160 cd 90 e5 3d 97 b8 07 bd 32 25 80 be ed 27 70 bd
       0.11209259 -0.033135023 -0.25028378 -0.058631826
000170 bf 7e f7 bc dd 14 3f be e6 97 d2 3b fc b1 ef 3d
       -0.030211804 -0.18660302 0.006426799 0.1170387
000180 76 1a d8 be 0b 84 af 3d a5 f1 4a be 6c 53 4b bd
       -0.42207688 0.08570107 -0.19818743 -0.049640104
000190 c6 5b 48 be 4f 8a a5 3d 4c 54 6b 3a a6 f2 a7 3d
       -0.19566259 0.08083021 0.00089771 0.082005784
0001a0 5a f0 7a bc cf 33 3f 3d 46 7b d2 3d 31 2d ab be
       -0.015316093 0.046680268 0.10277419 -0.33432916
0001b0 86 42 4e 3b d1 bd ae bd 57 59 04 3b 97 27 c2 be
       0.0031472757 -0.08532298 0.0020194852 -0.3792083
0001c0 c5 c6 37 3d 11 27 00 3e cf 08 89 be f3 59 25 3c
       0.044867296 0.12514903 -0.26764533 0.010092246
0001d0 ae cd 88 be 00 e1 53 be ac 14 74 be d0 17 13 3e
       -0.2671942 -0.206913 -0.2383601 0.14364552
0001e0 d0 2c e1 bd 43 db 29 be b1 68 c1 3d fa 4c a4 be
       -0.109948754 -0.16587548 0.094437964 -0.32089978
0001f0 e1 ee 85 3d f4 ce a2 3c 54 1b ab be af 59 29 bd
       0.06539703 0.019874074 -0.33419287 -0.041345295
000200 67 47 a7 3d 3e 4c 81 be 72 ab ad bd 53 53 b0 be
       0.08167916 -0.2525348 -0.08479966 -0.3443857
000210 63 f1 55 3e f7 26 31 3e 06 bf 0e bc 0c 92 96 be
       0.20892863 0.1730002 -0.008712536 -0.294083
000220 fd f8 1c be a7 29 d9 bc f0 45 f1 3c 37 b4 70 bd
       -0.15329356 -0.02650912 0.029452294 -0.058765616
000230 9d 23 38 be 73 40 ca bd 6c e7 0f be 0f a0 82 be
       -0.17982335 -0.09875574 -0.14053124 -0.2551274
000240 6d 7c 1b 3e 37 00 a8 bd 49 9c ac 3d 12 da d9 3c
       0.15184183 -0.08203166 0.084282465 0.026593242
000250 14 b1 c8 be cc 19 bb 3d 68 66 e1 3d c4 c0 d1 bc
       -0.391976 0.0913578 0.110058606 -0.025604613
000260 f8 7b 91 bd e8 d7 d7 be 4a 24 e8 bd b5 b2 96 be
       -0.07103723 -0.4215691 -0.113350466 -0.29433218
000270 16 76 33 be 45 2d 9d bd ed 48 2b be 02 38 a1 be
       -0.17525515 -0.0767465 -0.16727038 -0.31488043
000280 84 34 10 3d 43 cb f7 be 9a a4 17 bc cf 59 0f be
       0.035206333 -0.48397264 -0.009255553 -0.13999103
000290 fb ae 2b be fe 5a 18 be cd e5 7e be 0b 98 b5 bd
       -0.16765969 -0.14878461 -0.2489235 -0.088668905
0002a0 64 22 8f be 0f 18 b3 3d 55 a8 2d bc cf 43 cb bd
       -0.27955925 0.08744823 -0.0105992155 -0.09925043
0002b0 6a 66 38 bd ce 5e 22 be b3 4f bf bd 48 e5 99 bd
       -0.045019545 -0.15856478 -0.09341373 -0.07514435
0002c0 db 34 d1 be 66 b2 59 bd 96 f9 4c bd 8f b7 8e be
       -0.40860638 -0.05314865 -0.05004271 -0.2787442
0002d0 19 98 45 3e e6 1f 44 bd ba 54 88 bd 79 33 8d be
       0.19296302 -0.047881983 -0.06656785 -0.27578333
0002e0 0e 61 5c 3d 68 bf c6 bd b7 20 a1 3d 32 ba b6 3c
       0.053803496 -0.097044766 0.07867568 0.022305582
0002f0 f0 60 e7 3c e8 42 a1 3d f1 48 ab 3b 4a 06 58 3c
       0.028244466 0.078740895 0.005227201 0.013185093
000300 45 63 9f be e8 af f4 bc 56 db cb bd 62 61 aa 3d
       -0.31130424 -0.029869035 -0.099539444 0.083193555
000310 26 34 5e 3d 81 04 83 be 50 d4 f0 be ec c7 dd bd
       0.05424895 -0.25589374 -0.47036982 -0.10829148
000320 14 95 11 3e 4a e5 b7 bd 71 5f 93 bd b1 1a 32 bd
       0.14217025 -0.0897928 -0.071959384 -0.043482486
000330 3b a0 60 bd ce f7 33 bd ff fd ee be 30 21 8c be
       -0.054840308 -0.043937497 -0.4667816 -0.2736907
000340 fd df aa 3c e2 35 3b 3d 4b a0 01 3e 2e 68 f5 bd
       0.020858759 0.045705684 0.12658803 -0.11982761
000350 aa 08 2c be b2 36 60 be d3 7b a7 be da be 6b be
       -0.1680018 -0.21895865 -0.32711658 -0.23022023
000360 3f 36 e2 be 3d 42 44 bd 2e da a7 bd 95 f4 d8 bd
       -0.4418201 -0.047914732 -0.08195911 -0.10593525
000370 6a 26 0d bd 84 f9 26 3e 6e 8d de bd a4 3f 50 be
       -0.034460463 0.1630612 -0.10866819 -0.20336777
000380 91 7e 9e bd 17 62 89 be 70 f0 29 bc 7d 06 80 bd
       -0.077389844 -0.2683265 -0.010372266 -0.062512375
000390 6e ae 0a 3e c6 64 c0 3d 5b b4 8d 3c 9c ba 0e bd
       0.13543102 0.09394221 0.017297914 -0.034845933
0003a0 49 f6 05 3c de e4 1b bd 08 68 b8 be bd 58 e3 bc
       0.008176395 -0.03806006 -0.3601687 -0.027752275
0003b0 eb 9d 92 be 0c 1c 2c be 10 a7 a1 3d 1d f1 72 3d
       -0.28636107 -0.16807574 0.07893193 0.059311975
0003c0 06 19 b2 3d a3 27 cf be 83 fa 94 bc e4 11 b2 be
       0.08696179 -0.40459928 -0.01818586 -0.34779274
0003d0 b8 a6 8c bd 8a e4 20 bd 0e 19 16 3d da 50 95 3c
       -0.068677366 -0.03928045 0.036644988 0.01822703
0003e0 50 1f 8c be bc 32 03 3e 44 44 1b 3e 58 d1 42 bd
       -0.2736764 0.12812322 0.1516276 -0.047562927
0003f0 3b f2 5a bd 4b 18 89 be ff c8 07 3e ff 83 6b bd
       -0.053453665 -0.26776347 0.13260268 -0.05749893

fc1.bias f4 [10]
000000 5e 00 13 3e c5 12 6f 3e ba e0 60 be cb 69 ea 3c
       0.14355609 0.23347004 -0.21960726 0.0286149
000010 11 14 71 3d e4 c5 be bc 85 4a b4 bd e4 a1 c2 bd
       0.058857027 -0.023287721 -0.08803276 -0.095035344
000020 75 95 34 3d b0 8e 33 be
       0.044087846 -0.175349
